model/myModel.onnx (onnx, 635 bytes, 5 tensors)

fc1.bias f4 [4]
000000 7c a1 17 bf e2 72 2d 3f 1a d6 8e bf c0 bf 3c 3f
       -0.5923078 0.6775342 -1.1159089 0.7373009

fc1.weight f4 [4, 1]
000000 8a ee 14 3f 64 50 32 be 98 e5 43 bf b6 a4 0b bf
       0.5817648 -0.17413479 -0.7652221 -0.54548204

fc2.bias f4 [4]
000000 7d c1 cc be 94 f5 c1 be 8b db e9 3d 2f 50 3b 3f
       -0.3999137 -0.37882674 0.114188276 0.73169225

fc2.weight f4 [4, 4]
000000 4f 26 47 3f fc 57 88 be ca 00 88 3e 41 d7 c1 3d
       0.7779283 -0.26629627 0.26563102 0.094648845
000010 da cb 81 be 30 ce 1a bd 00 41 bf bd b8 c6 44 3e
       -0.2535084 -0.037794292 -0.0933857 0.1921643
000020 4c a3 0c 3f db 10 f3 3e 8c 4f d0 be 40 a1 f8 3e
       0.5493667 0.47473797 -0.4068569 0.48560524
000030 43 ce c8 bd e8 bf dd 3e 88 94 97 3f 21 fd 5f bf
       -0.09804966 0.43310475 1.1842203 -0.8749562

fc3.weight f4 [1, 4]
000000 2e 65 3d bf 80 ff 7a 3e ab ba 3b bf 76 89 cb 3f
       -0.7398251 0.24511528 -0.7333171 1.5901325
